models/proline_gat.pt (torch, 14000 bytes, 7 tensors)

gat.att_src f4 [1, 4, 32]
00000000: f054 21be 1a3e 0b3e 06f1 eb3e 59a4 aabe
00000010: b832 6abe fa1f 82bc 207f bfbd c5d1 653e
00000020: fbfa 8c3e abf4 18bf a4be e4be 3938 963e
00000030: ecc0 d3be 494c 153e 9f88 9e3f 712b 923d
00000040: ecf1 9cbe b1bc d3bd e63c 88be 0b89 51be
00000050: 5194 89bd 7cf6 08be 1ce9 bc3e e265 e8bd
00000060: a17a aabe b829 de3e 8a02 17be 93f0 c43d
00000070: 88a9 743f cfae f8bd 30bb 5a3e 2817 b5be
00000080: 8189 cb3d 898b f53a 1658 c03d f1e3 9f3d
00000090: ff55 463e 4e9e b33d d0d2 133e bd2a febd
000000a0: bd77 2dbe 5748 dabe d25c 903d 9267 cc3d
000000b0: f305 93be d306 7a3b ee8f db3e d1d1 333e
000000c0: 2ecc ca3d 8e46 8abd f426 b93e 43c8 52be
000000d0: cb7a c2bd d2a7 52be f791 dcbd bffe febd
000000e0: cb29 0e3d fb61 6f3e 0712 643e edeb 0abe
000000f0: 6c79 f43d 81e7 fabd 9b1c 5e3d dc5a b9bd
00000100: 3335 a5be 44f6 0c3e 2fdb 0ebe 4f7d a83d
00000110: 7ea2 8b3d 2eec 7abe 9404 853e 51af 30bd
00000120: 8b58 133e 49b6 b23d fdde 04bf c0c5 2dbe
00000130: bc50 253e c58a a03d 9a8c b43d 989b 6f3e
00000140: 596f 3abe 403b 423e 8c43 db3d 6935 683d
00000150: efc9 b3be 0dc1 553e 1e86 b9be 1c99 15be
00000160: 5d8b 7b3e 9731 913b f670 1abd 08eb 143e
00000170: b33b 663e 8206 30be a357 edbd c3f9 10bf
00000180: ac34 23bd 1b0b 64be 88d9 b83d a91b 7dbe
00000190: 485d ad3c c0b1 f9bd eb64 09ba 1848 363e
000001a0: d129 9e3d 067f a9be 57b3 e7be 56c0 823e
000001b0: c57d a6ba 0ec7 8fbe 677b e63e fb45 cc3e
000001c0: b495 a1be 3c10 55be c371 16be 959a 10be
000001d0: 8451 40be 393a 12bf 175d d93d 95c4 8dbd
000001e0: 91c3 6a3e 8166 af3d e4e6 78be d35e 4a3d
000001f0: 2730 05be cdde 353e 55cb 33bd 9f1a a2be
-0.15755057 0.13597909 0.46082324 -0.33328512 -0.2287091 -0.015884388 -0.09350419 0.22443302
0.27535233 -0.59748334 -0.44676697 0.2933977 -0.41358125 0.14579882 1.2385443 0.07137192
-0.30653322 -0.103387244 -0.26608962 -0.20462434 -0.06717742 -0.13375276 0.36896598 -0.113475576
-0.33296683 0.43391204 -0.14747062 0.096161984 0.95571184 -0.12142717 0.21360469 -0.3536923
0.09938336 0.0018733601 0.09391801 0.07807148 0.19368742 0.087704286 0.14435887 -0.124104954
-0.16940208 -0.42633316 0.07048954 0.09980692 -0.28715476 0.003815104 0.42883247 0.17560507
0.099022254 -0.067517385 0.3616253 -0.20584206 -0.09496077 -0.20571831 -0.10770028 -0.12450933
0.034707826 0.2337722 0.22272502 -0.13566561 0.11937222 -0.12251187 0.0542265 -0.09050533
-0.3226715 0.13765818 -0.139508 0.08227026 0.06818102 -0.24504158 0.25980055 -0.043135945
0.14389245 0.087261744 -0.51902753 -0.16969967 0.16144079 0.07838968 0.0881588 0.23399198
-0.18206538 0.18967915 0.10706243 0.05669156 -0.35115 0.20874424 -0.36235136 -0.14609188
0.24564882 0.0044309604 -0.037705384 0.14542782 0.22483711 -0.17189983 -0.11588981 -0.56631106
-0.039845154 -0.22269861 0.09025866 -0.24717583 0.021162644 -0.12192106 -0.0005241173 0.17800939
0.077228196 -0.33104724 -0.45254013 0.25537366 -0.0012702277 -0.28081554 0.45016024 0.3989714
-0.31559527 -0.20806974 -0.14691834 -0.14121468 -0.18781096 -0.5712009 0.106134586 -0.06922261
0.22926165 0.08564473 -0.24306828 0.049406838 -0.1300665 0.17760773 -0.043895084 -0.31660935

gat.att_dst f4 [1, 4, 32]
00000000: 4da7 22bf 6ac6 2b3e 0507 203f 8eeb 1a3f
00000010: 623c b93e b721 b8bf cb37 903f 08bd 413f
00000020: 64dd 8e3e 7b4e 46bf 8214 9dbe 408c f2be
00000030: 5101 99be e97b f6bd aa8c 6d3c b68d 553e
00000040: 048b a3be 508e d63e 8082 093f 9dae 52bf
00000050: c46a fdbd a16b 8fbf 2e37 f0be c7a0 0abf
00000060: b99a 203e e4a7 753f 3d73 263f 1ca0 cc3e
00000070: 902e ee3e 6c05 2940 bee7 183f 1a7c 93be
00000080: 46ba b6bd 1f55 1e3f 3a64 f63e 31d8 78be
00000090: 9c05 a1bd 594d 00c0 ba77 963e 46d9 6ebe
000000a0: 2b3f 1d3f 8528 9fbf 04f3 babe 7cf3 c93d
000000b0: c212 15bf 47c0 d43c 49af 0a3f 3dcc 81be
000000c0: 8ea9 cd3e 785d 0a3f 8af0 b13e 551e 6ebe
000000d0: 6e82 0b3e a78e dabe 50ea 92be 642e fa3e
000000e0: 7ec1 703e 1565 223f 1df3 c4be 1255 493f
000000f0: 44fb 873d 26d4 2b40 fcab 2d40 f233 a1be
00000100: 4875 7f3f 9333 463d 0dcc 593f 5ebb 18c0
00000110: d705 583f 4495 a8bd a081 e83f 10c3 adbe
00000120: d1ec db3e b481 7f3f 7db7 76be 7cca e63e
00000130: 6080 0ebf 80f2 38bf 6f34 8dbf 680b 47be
00000140: 341d 09bf 8dac b3be d11f e8be 02f2 d53e
00000150: b333 64bf aa54 44bf bd53 fa3e f214 a83e
00000160: ca57 34bf 12d1 2a3f e400 cbbe fee1 47bf
00000170: 9d83 aebe 839a 5a3e 73d7 263f 4150 a1be
00000180: 5e8a b23e d4a1 b73e c7b0 83bf 1da2 843f
00000190: f6d4 bfbe cc28 6ebf a99a c8bd 864c 86be
000001a0: 0beb 09bf 7115 95bf 1a58 db3e da69 74be
000001b0: feab 2f3f bf6b 7a3f a097 2b3f 79bd 913c
000001c0: cbe5 433f 0ca2 0c3f 1c9c c13f ad4d 81bf
000001d0: 5503 92bf b61f 85bf e495 60bd a028 bcbd
000001e0: cccc c93f 598d 273f f7e8 963f b619 3cbf
000001f0: 7b18 3abf bd93 b43d ab9e 34bf 8b04 163d
-0.6353653 0.16774908 0.6251071 0.6051568 0.3617888 -1.4385289 1.1267027 0.75679064
0.27903283 -0.774635 -0.3067971 -0.47372627 -0.29883817 -0.12035353 0.014498869 0.2085484
-0.31941998 0.4190545 0.5371475 -0.8229769 -0.123738796 -1.1204721 -0.469171 -0.54151577
0.15684022 0.95959306 0.6501959 0.39965904 0.465199 2.640956 0.5972861 -0.2880562
-0.089222476 0.61848634 0.48123342 -0.2430122 -0.07862398 -2.004721 0.2938822 -0.2332507
0.6142451 -1.243424 -0.3651353 0.09860894 -0.5823175 0.025970591 0.54173714 -0.25351134
0.40168422 0.5404887 0.3475383 -0.23253758 0.13623974 -0.4268696 -0.2869439 0.48863518
0.23511311 0.6343549 -0.3846673 0.7864543 0.06639722 2.6848235 2.713622 -0.31484944
0.9978833 0.04838903 0.8507698 -2.386436 0.8438391 -0.08231595 1.8164558 -0.33937883
0.42954114 0.99807286 -0.24093433 0.45076358 -0.55664635 -0.72245026 -1.1031626 -0.19437945
-0.53560185 -0.35092583 -0.45336774 0.417862 -0.89141387 -0.7669169 0.48892012 0.3282848
-0.70446455 0.66725266 -0.39649117 -0.7807921 -0.34084788 0.21348004 0.651725 -0.3150654
0.3487119 0.35865653 -1.0288323 1.0361973 -0.37467164 -0.93031 -0.09795124 -0.26230258
-0.5387427 -1.1647168 0.42840654 -0.23868504 0.68621814 0.9782066 0.67028236 0.017790543
0.7652251 0.54934764 1.5125766 -1.010183 -1.1407267 -1.0400302 -0.054830447 -0.09187436
1.5765624 0.65450054 1.1789845 -0.7347673 -0.72693604 0.08817241 -0.7055461 0.036625426

gat.bias f4 [32]
00000000: 7d54 983d a5d2 a13e f0e3 0abe 28e9 ee3c
00000010: 8a96 5b3f bdc7 b83e 8993 8a3e 67a7 813e
00000020: 29c2 13bf 9cc6 f83d 43c8 c33e 822d c2be
00000030: 0d80 8b3d ddaf f8be 88a1 f5bc 83ce 8ebb
00000040: ccbd 8b3e 9bec 0ebf b702 84be 9a1a bf3e
00000050: efa9 293e 8ead b43e 018a 0dbc 23ad b5bd
00000060: 6147 503c 5721 083e e76c a43e bf12 82be
00000070: 3afd 1dbe 2087 a43b c0c1 ea3d bfc4 da3e
0.0743799 0.31606022 -0.13563514 0.029163912 0.8577658 0.36089888 0.27065685 0.2532303
-0.5771814 0.12147257 0.38238725 -0.37925345 0.06811533 -0.48571673 -0.02998425 -0.004358114
0.2729324 -0.5582978 -0.2578332 0.37324983 0.16568731 0.35288662 -0.00863886 -0.08870914
0.012712331 0.13293968 0.32114336 -0.25404927 -0.1542863 0.005020991 0.11462736 0.4272823

gat.lin.weight f4 [128, 10]
00000000: c4e4 10bf 48c9 423f ae39 fb3d 4b69 ca3d
00000010: 04e0 93be d19a 80bd 0fe8 f53e 19af 69bd
00000020: 80a6 453d 5e9c 7e3d dbe1 c13e 58a0 7abe
00000030: 73b4 de39 4202 883e 8db1 0c3e 2f5e 723d
00000040: 2a9f 06bf a493 83bc 71c7 3c3c 029f 573d
00000050: 7d08 2d3f affd 8dbf 92fc 5ebe f8f7 603e
00000060: b9f4 633e 6a39 f93d 3931 a4bc c801 4b3c
00000070: c9eb 5bbc 4e80 35bd d07e e1be 8aba 81be
00000080: 9a47 91be c8d8 99be fa5d fb3e e85c 053e
00000090: 0ed6 2bbf c5f1 2d3c 4f2e 5dbd fc0a a23c
000000a0: b515 353f f7f7 26be f34b 00be 1a0f 32bf
000000b0: 329c e33d 2515 81bd ecb3 4bbe c6cc 083c
000000c0: bcda a13b f7e1 1c3c 2f12 55bf 68f0 1940
000000d0: 9dc8 813d aac9 b03e 2e33 4c3d a68d 85be
000000e0: 6fff 083f a64b 06bb ca82 6d3b eedc 28ba
000000f0: 349b 8c3e b16f eabf ff74 85be 01db a4be
00000100: fc08 aa3f 4c8b c73e 6222 00be 3ac5 93bb
00000110: a78e 21bb c091 783a 9c38 20bf bb50 56bf
00000120: 1c4b 4ebf a2ea 8ebf f436 13bd acfb 223f
00000130: 6c62 fc3d 08b0 233a bed3 dcb9 1efc 5dba
00000140: 7183 183f 0b96 97bf ca53 9b3e 54c0 8d3e
00000150: 90ce 0ebf 3e23 0ebe 9e42 983e 902b 0bbe
00000160: 5f64 0b3e 1801 e13d b0e0 01c0 2543 cb3f
00000170: 0c52 3bbf 5d89 81bf f2f9 35bf 277c ac3d
00000180: eb34 c33e a9f5 293b 8e8e 6739 e8a3 a53b
00000190: 46ed 9fbf e4d5 d33e 32a3 87bf 7e7b d0be
000001a0: f25e 11bf 08d0 313f 8eb1 533e 5321 d43b
000001b0: 3ba3 a5ba cce0 7bbb 7f49 783e 38cf 253f
000001c0: d3b9 813f 9751 d73e aebb d9bd ab0e 9dbe
000001d0: c95c f43c f761 04bc cc70 8dbd f691 69bd
000001e0: 9e96 86bf 757d 6e3f 459c 70bd 2a70 cbbe
000001f0: 5e0f c2bb 61b6 703d d430 ce3e de84 0f3c
00000200: 9b39 ebba d1e2 01bb 898f 343d caad f33b
00000210: 38ef 053e 5f45 ce3d 295c fe3d a310 35bd
00000220: 1d49 8bbe 3a14 24bd afbb 9b3d 173d 9b3d
00000230: 8ffe 1140 0339 38bf 4319 243f 938f 163f
00000240: 5a53 86be 9478 07bf 95fc 1e3e e7b5 1a3c
00000250: b823 f2ba 2f0d 15bb 7e47 dd3e 63ab 79be
00000260: d749 b63d 271e 5ebe 0243 303e 3055 f63d
00000270: 6f67 90bd a810 d1bb e3d5 1ebb 79cc a83c
00000280: 10ba aabf 3cad 363f 87b6 54bf 9f0c 6abf
00000290: 64c9 adbd ec5f 1bbd 043b 123f c8b8 e33b
000002a0: a4e9 d9bb a96e 43bb 8906 25be e4be 25bf
000002b0: 2d48 b5be 2112 8b3c c281 143e 3caa fa3c
000002c0: 8915 89be cca6 b4ba 800c 0e3d 6c71 9c3c
000002d0: 99ae fc3e b5aa 31be 1e82 ccbe f6ac 31bf
000002e0: 5163 a03e aaed f23d 24b4 68be c90f 7abc
000002f0: f45b cfbb 30ca 283c d21f bbbf 9f91 a83f
00000300: d411 cabd 4b46 253f 5823 a73e 73bb 97bd
00000310: 8755 933e 9d7d 0c3b ca47 683a 3ce4 d1ba
00000320: c2ba 66be 41a4 4e3e 554c 3f3e f5d3 e83c
00000330: 34ae 00bb 84ac 1bbd c8da 7b3b 200b 5bba
00000340: d6a3 4c3b 852a c7bb 4a5e 87bf bd08 ba3f
00000350: 3954 e73f 18e7 263f 7b7e 05bf a8ee 94bf
00000360: 6c2e 1dbd 9926 baba 04bf 8aba 5db4 05ba
00000370: 2b5f d83e 91f9 bb3e 5daa 593d 53f1 8ebd
00000380: e954 debe ac7a 94bd 7d9a 123f b1e8 c0bc
00000390: 5ceb d73c 60f8 41bb 0f81 aebe d29c 953f
000003a0: 767c 96bc 7ec5 813e 6766 87be 26c8 b9bd
000003b0: 4603 8d3e 84a6 4ebc fa2f da3b d051 9c3c
000003c0: 5920 2dbf c6d1 903d 2de6 9e3d 16f4 0cbf
000003d0: 4627 a83d 8b29 353d ffcb 1c3e b4d8 80bb
000003e0: 0540 73b8 af22 d9ba 3091 4e40 1213 65bf
000003f0: 3d2e cf3f 73c8 003f 6a06 693e a630 04bf
-0.5659907 0.7608838 0.12266861 0.09883364 -0.28881848 -0.06279529 0.4802861 -0.05705175
0.04825449 0.062160842 0.37867627 -0.24475229 0.00042477585 0.26564223 0.13739605 0.05917185
-0.52586615 -0.016061611 0.01152216 0.052641876 0.6759108 -1.1093043 -0.21776035 0.21969593
0.22261323 0.12169154 -0.020043002 0.012390561 -0.013422915 -0.044311814 -0.44042063 -0.2533763
-0.2837494 -0.30048203 0.49095136 0.13023722 -0.67123497 0.010616724 -0.05399924 0.019780628
0.7073625 -0.16305529 -0.12528972 -0.69554293 0.11113776 -0.06302861 -0.19892853 0.008349603
0.0049394052 0.009575359 -0.8323087 2.4052982 0.06337092 0.34528857 0.049853496 -0.26084632
0.5351476 -0.0020491867 0.0036241286 -0.00064416125 0.2746216 -1.8315336 -0.26065823 -0.32198337
1.3283992 0.38973463 -0.12513116 -0.004509595 -0.0024651678 0.00094821677 -0.6258638 -0.83716935
-0.8058336 -1.1165354 -0.03594108 0.6366527 0.1232346 0.0006244187 -0.0004211943 -0.00084680493
0.59575564 -1.1842664 0.30337363 0.27685797 -0.5578394 -0.13880631 0.29738325 -0.13590837
0.13612507 0.10986537 -2.0293388 1.5879866 -0.7317207 -1.0120045 -0.7108451 0.08422118
0.3812631 0.0025933778 0.00022082982 0.0050549395 -1.2494285 0.41374123 -1.0596678 -0.40719217
-0.567855 0.69458055 0.206732 0.006473699 -0.0012637147 -0.003843355 0.24246787 0.64769316
1.0134834 0.42054436 -0.106315 -0.30675253 0.0298294 -0.008079997 -0.0690628 -0.057023965
-1.0514715 0.9316018 -0.05874278 -0.39734012 -0.005922242 0.05876768 0.40271628 0.008759705
-0.0017946245 -0.001981903 0.0440822 0.0074364888 0.13079536 0.10071825 0.12419922 -0.04420532
-0.27204219 -0.040058352 0.07604157 0.07580011 2.281162 -0.7196199 0.64101046 0.58812827
-0.26235467 -0.5291836 0.1552604 0.009442783 -0.001847378 -0.0022743454 0.43218607 -0.24381785
0.089008026 -0.2169119 0.17213061 0.12027967 -0.070509784 -0.0063801594 -0.0024236373 0.020605313
-1.3338032 0.71358085 -0.83091015 -0.9142551 -0.08485678 -0.037933275 0.571213 0.006949518
-0.0066501666 -0.0029820597 -0.16115774 -0.647444 -0.35406628 0.016976418 0.14502624 0.030598752
-0.26774243 -0.001378262 0.03467989 0.019097053 0.49351957 -0.17350276 -0.39943022 -0.6940454
0.31325772 0.11861737 -0.22724968 -0.015262553 -0.0063281003 0.0103021115 -1.4619086 1.316944
-0.09866682 0.64560384 0.32644153 -0.074088 0.2877619 0.0021437176 0.0008860795 -0.0016013454
-0.2253218 0.20179845 0.18681462 0.028421381 -0.0019635083 -0.03800632 0.0038429964 -0.0008355845
0.0031225584 -0.006078067 -1.057565 1.4533917 1.8072578 0.6519637 -0.5214612 -1.1635332
-0.03837435 -0.0014202177 -0.0010585492 -0.00051004236 0.42260107 0.36713842 0.053140987 -0.06979623
-0.43424156 -0.0724996 0.5726698 -0.023548456 0.026357345 -0.0029597506 -0.3408284 1.1688483
-0.018369894 0.25345987 -0.26445314 -0.090713784 0.2754156 -0.012612943 0.0066585513 0.01908198
-0.67627484 0.07071261 0.07758746 -0.55059946 0.08210616 0.04422907 0.15312193 -0.003932083
-5.7995338e-05 -0.0016566123 3.2276115 -0.89482224 1.6185986 0.5030586 0.22756353 -0.5163673

mlp.0.weight f4 [32, 32]
00000000: 02aa 1f3c 7605 71bc ed54 34bd abec 283d
00000010: 48ca 3abb b890 24be b87e 8ebe 83e9 13bf
00000020: 980b 983b 2745 15be ae48 9c3e cbfc 783c
00000030: 6aca 6e3c 875b ffbc fcb0 86bd c85b e1bc
00000040: 57df 98bd 4bfd 993c fad1 73bd bc9a bdbd
00000050: e94e eb3b a67d 6b3d b304 853c 4b3b 9e3d
00000060: 071a 3c3e b0cd a8be c47e debc 52bb 36be
00000070: aaac 42bc 0825 2c3f bb28 f9be 8e6f 713d
00000080: 55cb 10bc 51da 7f3d d6f8 adbd 374e 26bd
00000090: 2ca9 593d fbf5 3cbe 925c 51bd 347a 21be
000000a0: 3fcb 633b e6ba 36be 34b0 7abe f81f 223c
000000b0: e387 003c 2eac c9bc 90a8 c83e 534f ac3a
000000c0: 15a9 28be 5f43 0bbc 30dc ac3d b8cc f83c
000000d0: 6950 5c3d 996d 363e b6aa 8e3d 39a8 81bb
000000e0: 3c0a 623d 64f4 1a3f e643 033e 4fd8 56be
000000f0: 3990 51bd 047c 38bf 04a2 163d 9aec b0bb
00000100: d919 1b3c efe5 5a3b b999 363d 36cd 2dbe
00000110: 172b a0bd 5569 15bf aa9e 24be e2d5 4dbf
00000120: 10cc 48ba 0561 573d daed 933e e871 353d
00000130: 4011 42bd 8fbd 6abd 6220 8fbd b585 b73b
00000140: 88de 8b3d f857 ba3c fdfc bcbc be2b 29be
00000150: c3ad c0bd 10ad 1dbf f6e2 09bd ce01 b5bc
00000160: 4062 033d 4296 f4be c45f 00be b627 77be
00000170: 10b3 99bd 3060 a53e 3997 d5be 8831 4e3e
00000180: 9b0b 393c b814 a2bd cb71 5cbd 2256 7fbb
00000190: 5863 0bbe 5128 863e 4dcc 91bd 733e 54be
000001a0: b03f 8ebc 9f82 0c3e 3cd0 f43c bbe4 d43c
000001b0: eb42 e53c 7fe8 6f3c 1dd8 64bc fef6 063d
000001c0: 1acd fdbd c51e 96bc 8fe2 5ebe 615c 233e
000001d0: 0666 d23c 489f 583d 0fb9 bfbd 4b00 043e
000001e0: 69b5 df3e 8381 cdbe d42a 11be 82d4 82be
000001f0: 5aa8 06bd ea54 8c3d 0eac 1fbf a7ad 993d
00000200: f183 3fbc fd7b 3e3d 869d b5bb a27d 6cbd
00000210: 947b 243e 880b 7bbd 83de 1f3e 1239 7a3e
00000220: 59ec f63c 5371 a2be 633f 62be 915d c73d
00000230: 692a babd 7112 b1bd 4f22 6f3e b9e2 563c
00000240: f4e9 613e 92be 023e f55a 0d3e b473 80be
00000250: f0b7 6dbe b27d 1e3e aa54 013c e690 b6bd
00000260: b97d 85bf 766a b5be 9468 113e 36c1 8c3e
00000270: f9bd 22bd 17ea 323e 820c bebe 41f3 febd
00000280: 748d 5fbe 4c68 313d a76f 0f3c ed0a a3bc
00000290: 82e7 5d3e 1097 ccbd 8d09 4abf 474c 5b3e
000002a0: 728b 4f3e e203 a8be 02ff 483e 516e d03d
000002b0: 5007 83be 673b 36be 6c3b a2bd 1c8f 12bd
000002c0: 9b4b 88be 2080 3e3d 682a b2bc 1f9a 6fbe
000002d0: ac2d e7bc aa61 983d aa84 c2bd 6275 0cbe
000002e0: 324d a1be 7a30 873e 2eda 803d 614e 1f3e
000002f0: 6bbc 293d 0373 d4bf 5590 653e 337a c33c
00000300: 406b 1cbe 0e25 793d e8ab 53bd ea78 89be
00000310: c7d1 2d3e 5892 2e3d 31d8 a2bd a5c5 433e
00000320: 59e7 0b3e 3ddf d0be 558c d5bd 9f5d 353e
00000330: 7aaf a1be de90 31be 0601 15bd c2d4 1fbe
00000340: 3ab2 923e a201 1b3e c9b7 2e3e 6c2c 87be
00000350: 8911 f4be e587 433d 05ce e3bc 8e6f 84be
00000360: f5f7 25bf 6376 95be 3835 003e 1517 55be
00000370: 7c03 1abe 1598 4e3e 08c5 c0bd fe7b 1abd
00000380: 7fe4 22bd 5e47 30be e634 e0bd 0898 05bd
00000390: 3358 90bd f540 423e f2e3 cebe 72fd 93be
000003a0: 30f4 ea39 035f 9bbd eff0 443d 880b 13bd
000003b0: 254a 85bd f7f1 18bd bb82 fc3d 50f4 c63d
000003c0: 4465 dfbe c907 b8bd 2c88 8abe 650e d2bd
000003d0: 7afd 4d3d 490c f23d 4978 bdbd bdb4 ff3d
000003e0: 9c94 953e e2d7 4bbe e2f1 10be fbcb 4d3c
000003f0: f820 213d aa45 0a3f c375 16bf 836d 1fbd
0.009745123 -0.014710775 -0.044026304 0.04124133 -0.0028501917 -0.16070831 -0.27831054 -0.57778186
0.004640054 -0.14577161 0.305242 0.015196989 0.014574626 -0.031171573 -0.06576726 -0.027509585
-0.07464474 0.018797537 -0.05952642 -0.09258029 0.0071810377 0.057492875 0.016237592 0.07726153
0.18369304 -0.32969427 -0.027160056 -0.17844895 -0.011881987 0.67244005 -0.48663887 0.058944277
-0.008837541 0.062464062 -0.08494727 -0.040601935 0.05313985 -0.18453209 -0.051113673 -0.15769273
0.0034758595 -0.17844734 -0.24481279 0.009895317 0.007844898 -0.024618234 0.39191103 0.0013146199
-0.1647075 -0.008499949 0.08440435 0.030371055 0.053787623 0.17815246 0.06966154 -0.0039568213
0.05518554 0.6052916 0.1281887 -0.20980953 -0.051162932 -0.7206423 0.036775604 -0.005399299
0.009466612 0.0033401211 0.044580195 -0.16972813 -0.07820719 -0.5836385 -0.1607615 -0.80404484
-0.0007659802 0.05258276 0.28892404 0.044298083 -0.047379732 -0.057309683 -0.069885984 0.005600656
0.06829554 0.022747025 -0.023069853 -0.16520593 -0.094081424 -0.615922 -0.033663712 -0.022095587
0.03207612 -0.47770888 -0.12536532 -0.24136242 -0.075048566 0.32299948 -0.41716936 0.20136082
0.011294271 -0.07914108 -0.05381946 -0.0038961251 -0.13612115 0.26202634 -0.071190454 -0.20726947
-0.017364353 0.13721703 0.02988445 0.025987973 0.02798601 0.014642834 -0.013967541 0.032950394
-0.12392636 -0.018325219 -0.21766113 0.15953209 0.025683414 0.052886277 -0.09361469 0.12890737
0.43693092 -0.40137872 -0.14176494 -0.25552756 -0.032875396 0.068521336 -0.6237191 0.07503825
-0.011689172 0.046504963 -0.00554246 -0.057737 0.16062766 -0.061290294 0.15612225 0.24435833
0.030141996 -0.31727085 -0.22094493 0.09734643 -0.0909012 -0.086460955 0.23352931 0.013115578
0.22061902 0.1276801 0.13804229 -0.25088274 -0.23214698 0.15477636 0.007893721 -0.08914356
-1.0428993 -0.35432786 0.1420005 0.27491158 -0.039731953 0.1747211 -0.37118918 -0.12448741
-0.21831304 0.043312356 0.008754647 -0.01990267 0.21670344 -0.099897504 -0.78920823 0.21415816
0.20268038 -0.32815462 0.19628528 0.10177291 -0.25591516 -0.17796098 -0.0792149 -0.03578101
-0.26620182 0.04650891 -0.021748737 -0.23398636 -0.02822002 0.07440503 -0.0949796 -0.13716653
-0.31504208 0.26404172 0.062916145 0.15557243 0.041439455 -1.6597599 0.2241834 0.02386198
-0.15275288 0.060826354 -0.051677614 -0.26850063 0.16974555 0.042620033 -0.079513915 0.19118364
0.13662471 -0.40795317 -0.10427157 0.17711495 -0.3157919 -0.17340419 -0.03637793 -0.15608504
0.286516 0.15137342 0.17062296 -0.2640108 -0.47669628 0.04773702 -0.027808199 -0.2586636
-0.6483148 -0.29191884 0.12520301 -0.20809586 -0.15040392 0.20175202 -0.09412581 -0.037715904
-0.039768692 -0.17214724 -0.109475896 -0.03261569 -0.07048073 0.18970092 -0.40408283 -0.289043
0.00044813892 -0.075864814 0.048081335 -0.03589967 -0.065082826 -0.03734013 0.12329622 0.09714568
-0.43631947 -0.0898586 -0.27057016 -0.10256652 0.050290562 0.118187495 -0.09251458 0.12485645
0.29214942 -0.19906572 -0.14154771 0.01256084 0.039338082 0.5401255 -0.5877344 -0.038922798

mlp.0.bias f4 [32]
00000000: ff10 443e 46a3 40be 2d3c fd3d 58f5 d93e
00000010: 39b4 a43d ef90 873e a506 103f 0697 023f
00000020: ac93 07be cc8e 253d fe64 d8be 40fa 8dbd
00000030: 2855 aa3e c0d2 873e 9044 27bd aed6 0b3f
00000040: 8969 9abe 981c ea3e c166 4c3c 9990 bb3e
00000050: d9de eabd af10 2c3d 0660 8cbe ab72 563b
00000060: e289 4c3e 1d9e 343e 29c5 343e 85e7 d73e
00000070: a30e 9ebe 71da db3e 3627 50bf 388e 393c
0.19147108 -0.18812284 0.12364993 0.42569995 0.08042187 0.26477763 0.5626014 0.51011693
-0.13239926 0.040419385 -0.4226455 -0.06932497 0.33268094 0.26527977 -0.04083687 0.5462445
-0.30158642 0.4572494 0.01247567 0.36633757 -0.11468286 0.0420081 -0.2741701 0.0032722156
0.19974473 0.1763844 0.17653336 0.42168823 -0.30870542 0.42940095 -0.8130983 0.0113254115

mlp.3.weight f4 [1, 32]
00000000: 08bf 07bf c004 203f a9a8 9cbf 4fd8 c4be
00000010: c64b 363f 2346 e63f e040 903f 7a93 44bf
00000020: 6f6d 153f f771 a6bf 8828 a93f 72bf 983f
00000030: 622f 6f3f f739 c8be 8636 c2bf 0099 c53f
00000040: 897b 283f 81c0 a5bf 32c7 32bf c0df 45bf
00000050: 4481 e33e 92a6 033f 5ee1 b33f 964b 6fbf
00000060: 4823 d5be 51d5 20bf 7c77 72bf 7bbf 1abf
00000070: db98 c63f 9129 03bf dffe ad3f 6b8a 61bf
-0.53025866 0.6250725 -1.2238971 -0.3844628 0.7120937 1.7990154 1.1269798 -0.7678753
0.5837011 -1.3003529 1.3215494 1.1933424 0.93431675 -0.39106724 -1.5172889 1.5437317
0.658135 -1.2949373 -0.698352 -0.7729454 0.4443456 0.5142604 1.4053152 -0.9347471
-0.4162848 -0.62825495 -0.9471357 -0.60448426 1.5515398 -0.512353 1.3593405 -0.88101834
